du-daq/src/trigger_grand.tflite (tflite, 116976 bytes, 7 tensors)

conv1d_2/bias f4 [32]
00000000: 11ab 97bc 0be9 bebb 22c3 63bb f4be 8f3c
00000010: b889 4bbb 3a4f 63bb e4f8 f73c 12af 37bb
00000020: c240 ecb8 1f02 7bbb 2da2 ef3a dd06 f23c
00000030: 4344 eb3c a5ea 263a 1bd7 72bc 5882 203c
00000040: b2e1 213d 9342 2e3d 3858 eebb 7b54 9cbb
00000050: 62a2 033a bd40 2cbc 3396 75bc 3657 c1bb
00000060: 8576 e0bc 91c6 ba3c 9c6a 86bc 9bcd a4bb
00000070: ef39 103c 61eb 39bc 9e7e 5c3c 569d 70bd
-0.018514188 -0.0058261207 -0.003475376 0.017547108 -0.0031057429 -0.0034684674 0.030270047 -0.0028027934
-0.00011265419 -0.0038300825 0.0018282585 0.029544288 0.028719073 0.0006367362 -0.014821793 0.009796701
0.03952188 0.04254396 -0.0072737 -0.004770813 0.00050214503 -0.010513482 -0.014989424 -0.005900289
-0.027400265 0.022799762 -0.016408257 -0.005029393 0.008802875 -0.011347623 0.013457922 -0.058743797

conv1d_1/bias f4 [32]
00000000: f94f 99bd 81bc d5bd bfe2 bfba c652 b6bb
00000010: 74f8 34bb 33d3 a8bc e08b 37bc 902a f9bb
00000020: 360c 97bc 1b4d fcbc 2782 0ebd fbcc 09bc
00000030: 962e 92bc 83ac 26bb 31be 15bd 563d a3bd
00000040: 07c6 9bbd ecb4 99bc 28bd a6bc e136 d0bc
00000050: 418d bcbc f97b abbd e341 c1bc 833d b0bc
00000060: 9949 e2bd cacd 5dbc 2c1a eebc be74 e9bd
00000070: 9c5b 92bc 50c5 cbbc eea8 203a 02a5 f9ba
-0.07485957 -0.10436345 -0.0014639719 -0.0055640666 -0.002761391 -0.02060852 -0.011202782 -0.007603951
-0.01843844 -0.030798486 -0.03479209 -0.008410688 -0.01784448 -0.0025432415 -0.036558334 -0.07970683
-0.0760613 -0.018763028 -0.020353869 -0.025416793 -0.023016574 -0.08373255 -0.023590988 -0.021513706
-0.11049194 -0.0135378335 -0.029065214 -0.1139922 -0.017865948 -0.02487436 0.0006128688 -0.0019046369

conv1d/bias f4 [32]
00000000: 5bb1 8fbc a8f3 62bc 238c bebc aff7 b6bc
00000010: e75e c1bc 5359 f1bc cdab 31bc 7772 cfbb
00000020: f5cd 3dbc 4431 77bc 8795 16bc 34d3 3abc
00000030: 04f7 89bc 9bc4 9ebd cd6d 0dbd 3461 83bd
00000040: 0a9d 6fbc 13e3 7cbc eea8 0cbd aa6e a4bd
00000050: 5a5c 57bc 0c4d 16bd 5d9d 2dbc e7a9 09bc
00000060: 21f0 c4bc bf68 eebb 0740 8cbc e568 b6bc
00000070: d46c 89bc 2a58 55bc 3945 efbc 8b9d d7bb
-0.017540624 -0.0138520375 -0.023260182 -0.022334902 -0.023604823 -0.029461538 -0.010844183 -0.006330784
-0.0115847485 -0.015087429 -0.0091909235 -0.011402894 -0.016841419 -0.07752343 -0.034528542 -0.064150244
-0.014624843 -0.015434998 -0.03434079 -0.0802892 -0.013144577 -0.03669457 -0.0105966 -0.008402324
-0.024040284 -0.0072756703 -0.017120374 -0.022266814 -0.016775526 -0.013021508 -0.029207813 -0.00658006

sequential/dense/MatMul f4 [1, 4096]
00000000: 0020 223e e323 ecbd 7e52 1dbb a9b2 7abc
00000010: 7f18 b23d f619 00be 7cee bebc 31ed 54be
00000020: ea1b babd 99d2 f3bc 2024 93bd aa75 7dbd
00000030: c313 9e3d 54c2 c0bc 2219 d2bd 8cb0 84bd
00000040: 2236 bdb8 cf51 903c 6078 afbd 19a6 2dbe
00000050: d8a1 d6bd a62e 7cbb b9f6 d6bd 336d 303e
00000060: ef9a 12be 457d 203d f795 5a3d fdc9 783c
00000070: ca21 61bc 0aa2 f13b 1d42 71bc de81 5d3d
00000080: 8106 56bc 2f1d 36be 4552 3dbe 3388 723d
00000090: 8dc6 3abc b1f7 22be 0ddf 973c 06d4 bbbe
000000a0: 8cff 0fbe 4e33 e0bd a398 a5bc 760d 6dbd
000000b0: 1e7b 503d d769 98bd 7eaa 343d 224b b4bd
000000c0: 5125 c13d 637b 5cbc 85e8 04bd b830 15be
000000d0: 1c29 10be 0d01 89be b2b4 f8bd 44c4 8a3e
000000e0: d85d 5dbe 0f42 063e bda4 b6bd a1f6 f63d
000000f0: ec21 cebc 5f38 9dbd 463a 63bc 2aee 7e3d
00000100: 9c3b ad3c 40df 94be a4b8 d6bc 5393 9dbc
00000110: c739 343d 65d4 82be bd27 133d 80cf b2be
00000120: 1fb4 66be cb89 bfbd aa66 1dbd d492 95bd
00000130: 928d f83c cf4a 2cbe 74f0 95bd c0be 0abd
00000140: 09c3 693b f01b 643b e8ac b0bd cad8 8dbe
00000150: c4b1 84be c761 41be 077c 8bbd 7299 1f3e
00000160: 18d0 93bd f60f 06bd 5a80 5fbe 8025 593d
00000170: b8e9 623c a1e1 5cbe 906b 90bc 3e7e b0bc
00000180: be95 183e 0ab6 9fbe f2a9 38be f238 16bd
00000190: f1f6 cdbd 9da6 67be aaf2 f4bc c231 a8be
000001a0: 7270 74be 6532 08be cfeb 21be 33cc d2bd
000001b0: 48ec 2eba 0060 fbbd 6e50 03be c4fd 9ebd
000001c0: 1c07 073c 31c0 8bbd c77c 10be 859c 5bbe
000001d0: 26ad 72be bfa1 b1bd bfab d3bd 000f 593d
000001e0: 1e11 edbd 9f10 11be a34c 99be 4311 a53d
000001f0: 8920 81bb 6f61 9abd bcb5 98bc b805 62bd
00000200: 0b1d 0abd bc78 94be 59e8 fbbd ccf5 c73d
00000210: 4549 11be a46f 40be 7133 a4bd 15fe 0dbe
00000220: 3aff 69be 8b64 0cbe 324f 3cbe f48f f6bd
00000230: bc0c 36bc 5cd6 0fbe 7258 9ebe 31df 7fbd
00000240: 036e d1bc 5eec f0bd 77ab 4abd 8dae 1dbe
00000250: 5bfc 11be 4c34 133e 4247 0dbe 0a93 893e
00000260: f8a9 f1bd ba08 1dbe 51ce bebe 3e61 d83c
00000270: 5fd1 73bc a13a cb3d 47bd 99bd 1114 343d
00000280: b623 92bc 30e7 31be aba8 f0bd 8c6a c73d
00000290: d7d6 57be 3329 e2bd f6b8 69bd 390f 583d
000002a0: d65e 52be 9827 3fbd f71e 35be d1d6 aebd
000002b0: e9aa 71bd 978b 59bd 85d9 b8be 1c7b bcbc
000002c0: 5505 a13d ee6c 2bbe d9b4 c3bd a646 04be
000002d0: 6790 debd 2045 ec3d 0a46 afbd 73f7 bf3d
000002e0: 1541 68be e7e4 60be 3177 b1be 6d42 e6bd
000002f0: 1bc0 06be c310 373e 224e 76bd 3fc9 96bc
00000300: 58e1 b3bd 840e 6fbe 0b00 febd 5d34 9abd
00000310: 8dbe 74be 1ef4 20be d012 56bd 9f87 b6bd
00000320: 8ac7 28be 26fd b5bd 17e1 80be 4381 31bd
00000330: e98a c3bc d560 0fbe f00b 87be cfee 14be
00000340: 921a dfbd 8d84 d1bd 3370 80bd 35c6 3bbe
00000350: 39c0 27be 3c73 04be 0649 c6bc a8cc 8dbd
00000360: 53e6 5cbe 5d48 c2bd a837 a3be 2405 7ebe
00000370: 0e61 35be c694 da3a 6f1f 65bd 10dc 6fbb
00000380: 6e29 22be f7d7 e4bd dc66 93bd 5095 523b
00000390: 9256 573d 15bf 53be 4d62 c73b 47ac 50be
000003a0: 7492 cdbd 90a0 4ebd 39d7 42be 763e 77bc
000003b0: 71c8 aabd fcd3 4ebe d29e 67be 02bc 0cbe
000003c0: 3e6e b8bc 1400 50bd e6a8 4dbd e8cd 39be
000003d0: 77b2 42be fb1d 85be bb92 28bd 6cbd 033e
000003e0: 84c7 a8be 3367 30bd 3da9 343d 475f 84be
000003f0: 786b 04be b01b 81be 9321 dbbd 4896 16bd
0.1583252 -0.11530282 -0.0024005468 -0.015301385 0.086960785 -0.12509903 -0.023307078 -0.20793606
-0.090873554 -0.029763507 -0.07184625 -0.06187979 0.07718613 -0.023530163 -0.102587 -0.06478986
-9.022305e-05 0.017617134 -0.085678816 -0.16957892 -0.10480088 -0.0038479953 -0.10496277 0.17229156
-0.14316915 0.039181966 0.053365674 0.0151848765 -0.013740966 0.007374053 -0.014725235 0.05407893
-0.013063074 -0.1778457 -0.18488415 0.05921192 -0.011399877 -0.159148 0.018538976 -0.366852
-0.14062327 -0.109472856 -0.020214384 -0.057874165 0.050898664 -0.07442062 0.044107907 -0.08803393
0.09430946 -0.013457152 -0.03244831 -0.14569366 -0.14078182 -0.26758614 -0.1214384 0.27102864
-0.2161783 0.13111137 -0.0891814 0.120587595 -0.02516266 -0.076767676 -0.013868874 0.06223885
0.021146588 -0.29076576 -0.02621109 -0.019235289 0.044000413 -0.2555267 0.03592657 -0.34923935
-0.22529648 -0.09352454 -0.038427986 -0.07303396 0.030340943 -0.16825412 -0.073212534 -0.03387332
0.0035669229 0.003480669 -0.08626729 -0.2770446 -0.25916874 -0.18884955 -0.06810766 0.15585878
-0.07217425 -0.032730065 -0.21826306 0.05301428 0.013849668 -0.21570446 -0.017629415 -0.021544572
0.14900872 -0.31193572 -0.18033579 -0.0366754 -0.10056866 -0.22622152 -0.029900867 -0.32850462
-0.2387102 -0.13300474 -0.1581261 -0.10292854 -0.0006672782 -0.1227417 -0.1282365 -0.07763246
0.008241441 -0.06823767 -0.14110099 -0.21446426 -0.23698863 -0.08673429 -0.10335492 0.05299282
-0.115755305 -0.14166497 -0.29941282 0.08059933 -0.003940646 -0.07538115 -0.018641345 -0.055181235
-0.033719104 -0.28998363 -0.12300176 0.09763679 -0.14188106 -0.18792588 -0.08017624 -0.13866456
-0.22851267 -0.13710229 -0.18389586 -0.12039176 -0.011111435 -0.14046615 -0.30926853 -0.06246871
-0.025565153 -0.117638335 -0.049479928 -0.15398617 -0.14256422 0.14375418 -0.13796714 0.26869994
-0.11799997 -0.1533536 -0.37266782 0.026413556 -0.014881461 0.09923292 -0.07506805 0.04396445
-0.017839294 -0.17373347 -0.11750921 0.09737119 -0.21078049 -0.110430144 -0.057061158 0.052748892
-0.2054399 -0.04666862 -0.17687593 -0.08537067 -0.059000883 -0.05311164 -0.36103454 -0.023007922
0.07862345 -0.16740772 -0.09555978 -0.12917575 -0.10867386 0.11536622 -0.08558281 0.09373369
-0.22681077 -0.2196232 -0.34661248 -0.112431385 -0.1315922 0.17877488 -0.060133107 -0.018406508
-0.08783215 -0.23345381 -0.12402352 -0.07529519 -0.23900814 -0.15718123 -0.052264035 -0.089125864
-0.16482368 -0.08886175 -0.2517173 -0.043336164 -0.023869948 -0.14001782 -0.26376295 -0.14544223
-0.1089374 -0.1023036 -0.062714 -0.18337329 -0.16381921 -0.12934583 -0.024204742 -0.06923801
-0.21572237 -0.094864585 -0.318784 -0.24806648 -0.17712805 0.0016676418 -0.05593818 -0.0036599673
-0.15836117 -0.111740045 -0.07197353 0.0032132454 0.052572794 -0.20678361 0.0060847164 -0.20378219
-0.10037699 -0.050446093 -0.19027413 -0.015090575 -0.083390124 -0.20198053 -0.22619179 -0.13743594
-0.022513505 -0.050781325 -0.050209902 -0.18144953 -0.19013391 -0.25999436 -0.041155558 0.12865227
-0.32964718 -0.04306717 0.04410671 -0.2585394 -0.12931621 -0.25216436 -0.10699763 -0.036764413

sequential/conv1d/Conv1D f4 [32, 1, 11, 3]
00000000: b797 993e ef26 2c3d 7359 23bd 02e1 e2be
00000010: 9847 04be 404a e63d 3ea4 a9bd 1b27 093f
00000020: d50c a93b e4be 843d d066 c73e 2fc4 fcbd
00000030: 663a 69be b462 29be c8d3 223e a0a6 36be
00000040: b87f 883d 96fe 39bc 6ef6 663e 2412 f7be
00000050: 1815 06be 535b 213e 1f26 95be 1d1f 8d3b
00000060: 5523 823e b7e9 543e c5c0 8f3d e2ca a73e
00000070: 5374 5cbc 48f3 febd 8b17 b4bd 9030 ef3e
00000080: 0e92 0c3e 50df 21be ac65 35be bcc1 fbbb
00000090: 504c 8bbe 7535 66be 1f41 0a3e 040a 63be
000000a0: aba6 72be 3997 9b3e 2a68 34be cb18 6bbe
000000b0: 0316 ff3d 4387 2d3d 6ce7 b5bd de1f 13be
000000c0: b6e9 10bb 319d d6bd 3d92 75be 5aba d73d
000000d0: ced6 7a3d ac91 76bd ef44 47bc 39b0 45be
000000e0: d5fb 143e 1b02 283d 828b d7bd 88f2 b1bd
000000f0: cfb0 b4bd 5576 89bc f78e 74be cb0c 18be
00000100: a07f 563e 3f23 d5be 4a8f 0abd 8f83 fd3d
00000110: dd5f 7fbd f961 2fbe 7318 e6be 9143 933d
00000120: 8896 ef3e c413 f9be 7ae1 22be 337a be3e
00000130: 2125 00bf b48b 183d e4b5 b53e dcb7 11bd
00000140: 6e06 b1bc bad8 ea3e 9b90 cf3e e155 8f3c
00000150: ab79 74bd 5f05 113f 3714 d93d 88f1 babe
00000160: 36ac 013f 05aa 623d 53bd dabe 4f59 b0bd
00000170: b4a0 a2bc 2cb8 febe 1a35 63be 7358 723d
00000180: 988c 81be f59d 21bf 18fe b4bd a8f5 8fbe
00000190: 8d4d 8cbe 1610 40be 9e93 d63d 4c28 eb3d
000001a0: cc84 0f3d 1a39 973d afb7 7b3e ebb2 5dbd
000001b0: 6bb8 60bd b696 87be 11f6 d93d 2180 2fbe
000001c0: cb51 55be 99c5 483c 4692 ad3d c748 b43d
000001d0: 2c3c 253e 55a8 143e bf2f a7bd 685c 12be
000001e0: f83e 87bb 8518 69be 5fac 0abe 2e60 1c3e
000001f0: 82e9 2d3e 5079 d13c a71f 803e 0281 c33d
00000200: e467 25bd a152 2dbe be39 a9be 12ec 643d
00000210: c000 30be 8847 5abe ca55 9e3d 8982 193e
00000220: 3846 0cbf ee50 60bd d2b9 be3e cbd9 afbe
00000230: 06f0 66bd 2aae ecbd cf2d 5e3e c1b6 c33d
00000240: 1dc3 e53b 5684 933e 1c14 97bd e074 533e
00000250: b336 8b3e 0cad 78bd 1c87 86be 3069 d43e
00000260: 744f 5e3e 59d9 24be 6306 cc3d 9405 c5bd
00000270: 7e34 34bd 1939 a9be 474d 0cbd 0856 de3a
00000280: 3a00 a6be 53ae 083e 8a53 563e 65c3 03bf
00000290: 32ed d0bd 3e7b 823e d550 1fbe e5f6 0e3e
000002a0: 75d2 283e f014 78bd 1c67 e7bd cead 643e
000002b0: 9ea1 a53d b383 5ebd a5ac 153d 0528 80bd
000002c0: 12c1 31be c445 8dbe 14a1 f4bd 01a5 3a3e
000002d0: 327f dbbe 6755 c7bc 6118 3b3e e65a d63d
000002e0: f3f4 82be fc79 2bbe 6468 ca3d c1c4 263d
000002f0: f200 fdbd 9b34 1e3d fb8c d93d 7d90 b1bc
00000300: 9328 b1be f9e2 803e 69b4 8ebd 8bc0 80be
00000310: 1841 23be f4d4 e1bd 89a0 fd3e 4585 91be
00000320: 83c6 a23d becb 903e 7a80 33be 9cdf acbd
00000330: 9f5d 9bbd a95d 273f b46c a13d a506 01be
00000340: 7773 033e 2939 a33d 2d13 8e3c ea47 62bd
00000350: 4708 2bbd d6f7 a8be 22a8 0e3f 1725 ba3d
00000360: 64d4 95be ae07 61be e98f 54bd bebd ba3d
00000370: bc3d 9fbe bd79 c1bd c426 093e 92bf 3ebe
00000380: 5a81 d13c 404a 4b3e a2b8 dcbe 670f a9bd
00000390: 34e5 cd3e e5b4 a73d ab61 273d 3f73 5d3e
000003a0: 16d5 343e e60f 443e 3c76 f83e e893 4dbd
000003b0: b586 383e 5736 043e 7999 16bd bb51 42be
000003c0: 642f 893d d642 d2bd 2617 f5bd c3c6 4abd
000003d0: 8cd3 963e 070e 38bd d029 a2be f31e 7c3e
000003e0: 4bb4 29be df34 0dbe 30c8 11be 2161 ad3d
000003f0: 8385 72be 8e64 80bc 62b1 c73d 2941 e0bd
0.29998562 0.042029317 -0.039880227 -0.44312292 -0.12917936 0.11244631 -0.0828328 0.53575295
0.0051590004 0.06481722 0.38945627 -0.123421066 -0.22776183 -0.16541559 0.159011 -0.17837
0.066649854 -0.011352202 0.22554943 -0.48256028 -0.13093984 0.15757494 -0.29130647 0.0043066875
0.2541758 0.2079228 0.0701919 0.32771975 -0.013455468 -0.12448746 -0.08793553 0.46716738
0.1372759 -0.15807843 -0.17714566 -0.007683007 -0.2720666 -0.2248133 0.13501404 -0.2217179
-0.23696391 0.3038881 -0.1761786 -0.22958677 0.1245537 0.042365324 -0.08882031 -0.14367625
-0.0022111959 -0.10479201 -0.23981567 0.105335906 0.06124001 -0.060197517 -0.012162431 -0.19305505
0.14549191 0.041017633 -0.10524656 -0.08688837 -0.08822786 -0.016780058 -0.23882662 -0.1484863
0.20947123 -0.41628453 -0.033828057 0.123786084 -0.06234728 -0.17127217 -0.44940528 0.07190622
0.46794534 -0.48647892 -0.15906325 0.37202606 -0.50056654 0.037242606 0.35490334 -0.035575733
-0.021609511 0.45868474 0.40540013 0.017497005 -0.059686344 0.5664882 0.10599559 -0.365124
0.506534 0.055337925 -0.42722568 -0.08610784 -0.01985202 -0.49749887 -0.22188225 0.059166383
-0.25302577 -0.6313165 -0.08837527 -0.28117108 -0.27402917 -0.18756136 0.104773745 0.114822954
0.035038754 0.07383938 0.24581788 -0.054125708 -0.054863375 -0.2648217 0.106426366 -0.17138721
-0.20831983 0.012254142 0.08475165 0.08802944 0.16136235 0.14517339 -0.08163404 -0.14293063
-0.0041273795 -0.2276326 -0.13542317 0.15271065 0.16983607 0.025570542 0.2502415 0.09546091
-0.04038228 -0.16926052 -0.33051866 0.055889197 -0.17187786 -0.2131635 0.07731207 0.14991201
-0.54794645 -0.05476468 0.37251145 -0.3434585 -0.056381248 -0.11556657 0.21697162 0.09556342
0.0070117847 0.28811902 -0.073768824 0.20650053 0.2719017 -0.060711905 -0.26274955 0.41486502
0.21709996 -0.16098537 0.09962156 -0.096202046 -0.043995373 -0.33051375 -0.034253385 0.0016962895
-0.32422048 0.1334775 0.20930305 -0.51470023 -0.102014914 0.2548465 -0.15558179 0.1396137
0.16486533 -0.060566843 -0.112989634 0.22331926 0.08087467 -0.054324817 0.0365416 -0.06257633
-0.17358807 -0.2759229 -0.11944786 0.18227006 -0.4287048 -0.024332715 0.18271019 0.10466556
-0.25577506 -0.16745752 0.09883192 0.040714983 -0.12353696 0.038624387 0.10622593 -0.021675343
-0.34601268 0.25173166 -0.06968004 -0.251469 -0.159428 -0.11026946 0.4953654 -0.2842199
0.07948019 0.28280443 -0.17529479 -0.084410876 -0.07586216 0.6537729 0.078820616 -0.12600191
0.12837015 0.07969887 0.017343128 -0.055244364 -0.04175594 -0.33001584 0.557253 0.090891056
-0.29263604 -0.21975586 -0.051895056 0.09118222 -0.31101787 -0.09447048 0.13393694 -0.18627766
0.025574375 0.19852543 -0.43109614 -0.08254891 0.4021393 0.081888 0.040864628 0.21625994
0.17659411 0.1914669 0.48527706 -0.050189883 0.18020137 0.12911354 -0.036767457 -0.1897649
0.06698492 -0.10266654 -0.11967306 -0.04950596 0.29458272 -0.044935253 -0.31672525 0.24621181
-0.16572683 -0.137897 -0.14236522 0.084657915 -0.23683743 -0.015672948 0.0975063 -0.10949928

sequential/conv1d_1/Conv1D f4 [32, 1, 11, 32]
00000000: 11d7 253e 36f5 40bc fcd5 ef3d d2a0 1bbe
00000010: 18a9 313e f2b3 c3bd 1d2c 523e 16a2 68bc
00000020: 7758 573e 18df 783c 0d99 463d dab4 0dbe
00000030: 827f 953d 50db e2bc ca74 c7bd 3e0f 193d
00000040: f248 6e3d 4d0b 1d3e 0bf3 6cbd 0f18 293e
00000050: 4fe0 f6bd e41e a13d 970b 4bbd 8a7c babd
00000060: b4d7 5a3e 5469 81be 228e 343e 43b6 f83d
00000070: 38b6 4d3c 8325 ab3c ab5d 9fbd acaf 5abe
00000080: e397 0d3e 81a9 96bd 67ec 0a3e b62a 8fbd
00000090: e8e9 fb3c dbf6 b7bd 9dbc ae3d 8551 12be
000000a0: 74e3 f33d 7ddc 22bd 3274 3b3e cc8d acbc
000000b0: 0b74 7dbd 84ef c13c c3ce c4bb 9781 693c
000000c0: aaa2 713d 4215 123c 274e 1dbd 19ce 9ebc
000000d0: f382 90be a4fb 943c 4e4c 46bb aacd ce3c
000000e0: 0403 633d 6cd8 b1be 47fe b53d 3907 4b3e
000000f0: 234b 90bd 6479 03bd 3402 85bd 5b35 13be
00000100: 66db d53d 866e d9bd d47a e73c 4fcb 15bc
00000110: 7869 a63d 0c9e a4bd 7b25 183e 73a9 03be
00000120: 2c7e e43d bd11 1dbe 0ec0 903d f94f 373c
00000130: 25a4 81be ddfd 203e b5fb 223e d888 3bbd
00000140: fcbc 16bd d4b4 75bd c4a0 cd3d be5c 753e
00000150: 168d 8ebd b8d5 9e3d 543f 97bd ed83 0abe
00000160: c250 8c3d 7c57 b8bd cb59 a23d a263 f83d
00000170: 2274 a0be 5239 783d a59a dcbd 5eef e0bd
00000180: 08b1 213e 4864 bb3b f550 1c3d 8699 4ebd
00000190: e83b d83d 5929 34be 63f7 543c 887e aabc
000001a0: f1c9 4b3d 5c71 ddbc c27e 873d 9625 9cbd
000001b0: e69c 36be 7fc9 aa3c f0e6 d23c 2c59 8b3e
000001c0: 6bef 7a3d 901e 123c 50ca 04be f0ba 383e
000001d0: 8041 55be 27b9 e13c dfd6 2bbd 9c3b 18be
000001e0: c909 f43d d70a f8bd 5e66 d83d 892a aabc
000001f0: f1a2 c6bc 49af 82bd 22b7 003d 4e43 8fbe
00000200: eb92 743d 3686 a1bd e3eb 273e 7cc2 b4bd
00000210: e7db 8c3d bef0 2bbd 04a2 02bd 9b64 a13d
00000220: e3ac 8f3c ed90 36be 54a6 c93d 8204 89bd
00000230: aa3e cf3d df68 debd 95bc d7bd 714e eb3d
00000240: c4c3 9a3d 5dde a53d c467 8abd 5b06 7e3d
00000250: 9dac 27be ef65 d5bc 3bf4 2dbd cbf4 eebc
00000260: c45e 513d 08b8 8fbe 7e25 2cbc 4b45 9b3d
00000270: 6d2b 383c 8c3b 80bd 4038 863b 33f4 4abe
00000280: 368b 033e aa13 b9bd 2a86 bb3d 78fc 873d
00000290: a69f 363d da1f 61bd 485b 323e 41a8 883b
000002a0: 60c2 423e bb9d 65bd 0544 873d be5c a23c
000002b0: cebc 953c 2edf c93d ba8c 0a3e 4f3d 29be
000002c0: 0733 3f3c c340 c33c 8d78 c23d 40c7 723c
000002d0: 09f8 11bd cc7f 5b3e 52c5 08be 1c08 b13c
000002e0: 2d09 2e3e 8082 54be 2ec3 503d b0f1 e13d
000002f0: aeac 08be 32f6 103d 6b37 f8bd f011 49be
00000300: a9a3 133e a66d 01be 25f2 9e3d bd6a 183d
00000310: 5833 923d 4e26 9bbd f90a b83c 166a 1cbe
00000320: 874f 803d d5c4 e53c 1ed6 203e bedc 603c
00000330: d48e 86be 3873 ca3d 1429 073e 27de 853d
00000340: e14e 6f3d 57e0 7fbd 5f02 493d 0ae1 1f3e
00000350: f19f 78be 2890 013e 4b64 213d eea1 02be
00000360: f5de 393e 8f85 8d3d 1e67 073e 2e9b bdbd
00000370: 47e4 48be c925 103d eb3d b53d 3f10 f2bd
00000380: c00f 163e f24a 5d3a 034d 183e f6e3 46be
00000390: fcdf 203e a377 66be 837f 023e 0cb8 893d
000003a0: 4770 0a3e 7e06 59bd 1f98 1d3e b7aa 08be
000003b0: 039e da3c a46e 1cbd 0bb1 183e f29c 6c3e
000003c0: 864a bb3d 5be2 7a3c a56d f9bd add8 463e
000003d0: 46ec 11be cd80 c63c 55fc 90bd 3df6 04be
000003e0: cc65 e43d 08f5 e6bd a7fb 5aba dbfb 86bc
000003f0: ca85 983d 0046 86bd 3947 1a3d c91a 66bd
0.16195323 -0.011777213 0.11710736 -0.15198067 0.1734966 -0.09555806 0.2052464 -0.014198801
0.2102984 0.015189908 0.048485804 -0.1383852 0.07299711 -0.027692467 -0.097390726 0.03736805
0.058175035 0.15336342 -0.05784897 0.16513084 -0.12054502 0.0786722 -0.0495716 -0.09105785
0.21371347 -0.2527567 0.17632344 0.12144139 0.012555651 0.02089191 -0.077815376 -0.21356076
0.13827471 -0.07356549 0.13566743 -0.06990568 0.030751184 -0.08982631 0.08532069 -0.1428891
0.119086176 -0.039761055 0.18306044 -0.021063708 -0.061878245 0.02367378 -0.006006093 0.014252088
0.05899302 0.008916201 -0.03840461 -0.019385384 -0.28224906 0.018186398 -0.0030257883 0.025244553
0.055422798 -0.3473543 0.0888639 0.19826974 -0.07045581 -0.03209819 -0.06494561 -0.14375822
0.104422376 -0.10616784 0.028256811 -0.009142711 0.08125585 -0.080379575 0.14858048 -0.12857608
0.11156878 -0.15338798 0.070678815 0.011188501 -0.25320545 0.15721841 0.15916331 -0.0457848
-0.036801323 -0.059986904 0.10040429 0.2396116 -0.06960504 0.07755607 -0.07385126 -0.13526888
0.06851341 -0.09001061 0.07927283 0.121283785 -0.31338602 0.06060154 -0.107716836 -0.10983156
0.15790188 0.0057187416 0.038163144 -0.05043938 0.10558301 -0.17593898 0.012998435 -0.020812288
0.049753133 -0.027031593 0.06615974 -0.076243564 -0.1783329 0.020848034 0.025744885 0.2721647
0.061263483 0.0089184195 -0.12967801 0.18040061 -0.20825768 0.027554108 -0.041952964 -0.14866489
0.11915929 -0.121114425 0.105664 -0.020772235 -0.024247618 -0.06381089 0.03142465 -0.27981037
0.059710424 -0.07886927 0.16398577 -0.088261575 0.068778805 -0.041977637 -0.03189279 0.07880517
0.017538493 -0.17828722 0.09846178 -0.06690313 0.10119374 -0.10859846 -0.10534016 0.11489571
0.075568706 0.08099053 -0.06758073 0.06201778 -0.1637444 -0.026049582 -0.042469244 -0.02916946
0.051115766 -0.28070092 -0.010506986 0.07581576 0.011240822 -0.06261358 0.004096061 -0.19819717
0.12846074 -0.09036954 0.09156449 0.066399515 0.044585846 -0.054962017 0.17417634 0.004170448
0.1901946 -0.056058627 0.066047706 0.019819614 0.018278506 0.09857021 0.13530245 -0.16527294
0.011669881 0.023834592 0.094956495 0.014818013 -0.035636935 0.2143547 -0.13356522 0.021610312
0.16995688 -0.20752907 0.050967388 0.11032426 -0.13347122 0.03539104 -0.12119945 -0.19635749
0.144179 -0.12639484 0.07761029 0.03721117 0.07138699 -0.075756654 0.02246617 -0.15274844
0.06265169 0.028047958 0.15706679 0.013724504 -0.26280844 0.098852575 0.13199264 0.06536513
0.058424834 -0.062469807 0.049074527 0.1561319 -0.24279763 0.12652647 0.039402287 -0.12757084
0.18151458 0.0691024 0.1322293 -0.09258114 -0.19618331 0.035192285 0.088497005 -0.11819505
0.14654446 0.00084416487 0.14873128 -0.19422898 0.15710443 -0.22506575 0.12743954 0.06724557
0.13519393 -0.052984707 0.15390061 -0.13346373 0.026686674 -0.038191453 0.14911287 0.23106745
0.091450736 0.015312756 -0.12179116 0.19418593 -0.14250287 0.024231339 -0.070793785 -0.12984557
0.11152229 -0.11277205 -0.0008353539 -0.016477516 0.07447393 -0.0655632 0.03766558 -0.056177888

sequential/conv1d_2/Conv1D f4 [32, 1, 11, 32]
00000000: 56f8 28bd cb2f 613d 1466 03be 6b6a 85be
00000010: 452d 23be e1f6 a1bd b30a 193e 1500 ccbd
00000020: b153 703e 27cd 2e3d 3705 92bd b4be 03be
00000030: 51dc 1dbd 90d9 d63a 4be4 1f3e f2a7 a03d
00000040: 4037 b936 5479 c93d a437 2dbd f4e2 d8bd
00000050: 1d9f 1abe 7e9c 43bc e457 823e 56be f83c
00000060: 40ba 5abd c2d0 9c3d 3d49 063d 946b 7fbd
00000070: 0cd4 923d cd3a 31bc 8c47 97bd 3eda 62be
00000080: fc74 94bd 3346 d9bc 07b9 58bd 988b e9be
00000090: 380d b8bd 14f0 c6bd 1d45 e3bd b794 b63d
000000a0: 6150 5bbd 0d68 143e f2e1 3dbc f98a f63d
000000b0: de3b 503e 7e0c e5bd 0c67 83bd 67ad 1abc
000000c0: 4860 823c a556 b13d 0a2c 33bd 94ab c33d
000000d0: 964d 2dbd ee17 41bd 3aed c03e 0a17 75ba
000000e0: a9a5 003e c4e0 893e 3fe3 c93c 334a 5bbd
000000f0: daed 393d 2275 9a3b 0dda 8e3c e40a 5dbe
00000100: f3ac ccbd 4f73 2ebd 261c eebd d282 4fbe
00000110: b839 40bd 7471 0e3e d9be 913e 34e5 673d
00000120: b58e 1c3e 2001 cf3d cbfc 31bd fd94 543e
00000130: 4d94 453e 8ec7 8d3b fed0 643e 96b6 83bc
00000140: 7be0 a13c 469d 27bd 340f 4a3e ccc7 913d
00000150: a87b 90bd 96ef febc 0d49 d83e 79b2 473e
00000160: 71c5 79bd 8afe cabd 544e 2a3e 73a3 3ebd
00000170: 3a7a 073f e161 2a3e f289 35bc 298e ecbd
00000180: f981 f4bc a255 8bbc 5226 14bd ac36 6cbe
00000190: 4c35 17be 49b0 5abd 1166 f53d 7087 73bd
000001a0: a6b3 963e 42d4 c73d 39c3 07be 5247 403d
000001b0: 4338 e9bd 85f9 d9bc 84d7 ad3e 5f19 153e
000001c0: da81 2f3d dfda 6a3e e0ca 8b3d 2eae 323e
000001d0: d486 e5bd e56d afbb ade6 a63e 9e97 5e3e
000001e0: 25be 403e 5296 433e e9a9 4d3e 42cc 183c
000001f0: 9644 d7bb f2b0 8c3e bffe 60bd 8b68 9abe
00000200: 5292 2bbe f233 003d 3137 0b3c dd17 64be
00000210: 8700 0fbe 0c25 6c3e 16ff 403e 73cb 62bd
00000220: 8b40 6e3e fc73 4b3d 8372 de3c 498b 533e
00000230: 4ba7 9b3d 1824 38bd aadc 133e 604c 1cbc
00000240: 9f1b d63d 574f 4c3e 2bc8 473e 11d2 8e3e
00000250: d494 efbd c97e bc3c 4ecc 8b3e 8305 623e
00000260: 44ae 9fbc ce5c 90bc 1773 c33e ae8d 393d
00000270: c3e3 d33e 2478 bf3e 5da7 1d3d a80d 3dbe
00000280: 4bd9 59be 99d5 e0bc c49a 3fbc 523e 9fbe
00000290: d855 c73b c330 263e 0993 783e cbf3 7c3d
000002a0: 0152 be3e c406 603d c6b4 a6bd 2e8e c83d
000002b0: 4cef 373e f193 463b 840d eb3d 80b1 d23d
000002c0: 178a a3bd aced 853e ef3a 273e 90bb 483e
000002d0: 26e7 39be 8e66 a73c 389f 803d 14e6 353e
000002e0: b85e 203d 8a2b 083f 60dc 433e c915 fc3d
000002f0: fd77 833c 5dd4 7a3e 82d5 76bc fb19 59be
00000300: f8ed 90bd 2fca 0d3c d69a 653d 5265 78be
00000310: b048 51bd 3163 433e 9af8 653d 3b40 1bbd
00000320: 2193 863e d2c1 4b3d c0f5 dc3b a2a9 3f3e
00000330: 2881 cb3d 2363 97bb b8db 4f3e 4e52 7bbc
00000340: 3df6 333d bdde 883e 3dde abbc 58ea cc3e
00000350: b8f7 1bbd 284f a3bc 60a0 2b3e 1b1f 5d3d
00000360: 4e58 763d 1a7e 7f3e 48b7 8d3e 45c2 943d
00000370: 50c5 ea3e 76c0 053e e728 5a3c 1048 43be
00000380: c6f3 fcbd ffc4 af3d d568 88bb 392b 92be
00000390: 25f7 8c3c 2178 593e 6c86 9b3e 4254 03bd
000003a0: 6f58 913e aab4 c73d 4d19 ad3d 9f1d 013e
000003b0: bff3 8c3e 8992 223d d5e3 91bb 6f80 8cbc
000003c0: 22d9 303d cbef 4e3e 41b7 c83d 2d9f 993e
000003d0: 6d0a f3bd 37bd 8a3d 9fe2 973e aa03 a03e
000003e0: bb96 b3bc 120d 1e3e 3ce7 6a3e fdd0 debd
000003f0: e42d fa3d be7e 693e b08b c43d 4b44 10be
-0.041252457 0.05497722 -0.12831908 -0.26057753 -0.15935238 -0.079084165 0.14945488 -0.09960953
0.23469426 0.042676117 -0.07129901 -0.12865716 -0.03854019 0.0016391743 0.1561443 0.07844533
5.5198616e-06 0.09837595 -0.04228939 -0.10590163 -0.1509976 -0.011939166 0.2545768 0.030364197
-0.053400278 0.07657005 0.03278469 -0.062358454 0.07169351 -0.010817242 -0.07386693 -0.22153565
-0.072488755 -0.026522731 -0.05291083 -0.45614314 -0.08986896 -0.0971376 -0.11097167 0.08915084
-0.053543452 0.14492817 -0.011589514 0.12038226 0.20335338 -0.11184023 -0.06416139 -0.009440756
0.015915051 0.08659104 -0.04374317 0.0955421 -0.04231032 -0.04714196 0.3768099 -0.00093494414
0.12563194 0.26929295 0.024644492 -0.05353756 0.04539285 0.0047136704 0.01743796 -0.21586186
-0.09993925 -0.042590436 -0.11626463 -0.20264748 -0.046930045 0.13910466 0.28465918 0.05661507
0.15288813 0.101076365 -0.043453973 0.2075996 0.19294854 0.0043267673 0.22345349 -0.016078275
0.019760361 -0.040921472 0.19732362 0.07118186 -0.070548356 -0.031120103 0.42243233 0.19501676
-0.06097931 -0.09911831 0.16631442 -0.046542596 0.5292088 0.166389 -0.011080252 -0.115505524
-0.029847132 -0.017008606 -0.036169358 -0.2306773 -0.14766425 -0.053390775 0.11982358 -0.059455335
0.29433936 0.09757282 -0.13258065 0.046943016 -0.11387684 -0.026608238 0.33953488 0.1456046
0.042848445 0.22935055 0.06825805 0.17449257 -0.11207357 -0.0053536766 0.32597867 0.21737525
0.18822534 0.19100311 0.20084347 0.009326043 -0.0065694554 0.2747875 -0.054930445 -0.30157885
-0.16755036 0.03129954 0.008497045 -0.22274728 -0.13965045 0.23061007 0.18847308 -0.055369806
0.23266809 0.04967116 0.027154213 0.20658602 0.07600268 -0.044956297 0.14439645 -0.009539694
0.10454487 0.19952141 0.19509952 0.27894643 -0.116983086 0.023009675 0.2730431 0.22072415
-0.019492276 -0.017622378 0.38173744 0.045301132 0.41384706 0.37396348 0.03848969 -0.1846224
-0.21274297 -0.027445601 -0.011694614 -0.31102234 0.0060832314 0.16229539 0.2427484 0.061755937
0.3717194 0.054693952 -0.081399485 0.097927436 0.17962378 0.0030300582 0.11477187 0.10287762
-0.07985323 0.26157892 0.16331075 0.196028 -0.18154582 0.020434644 0.062803686 0.17763549
0.03915283 0.53191435 0.19127035 0.12308843 0.016048426 0.24495073 -0.015065553 -0.21201317
-0.07076639 0.008654161 0.056055866 -0.242574 -0.05109471 0.19080807 0.056145288 -0.03790305
0.26284125 0.04974539 0.006743163 0.18717054 0.09936744 -0.0046199723 0.2029866 -0.015339447
0.043936003 0.26732436 -0.020979995 0.4002254 -0.03807804 -0.019935206 0.16760397 0.053984743
0.060142808 0.24950448 0.27678895 0.072636165 0.45853662 0.130617 0.013315416 -0.19070458
-0.123511836 0.08582496 -0.0041628876 -0.285486 0.017207691 0.21237232 0.30375993 -0.032062776
0.28387782 0.09751256 0.08452091 0.12608956 0.27529714 0.039690528 -0.0044522085 -0.017151086
0.043175824 0.20208661 0.09800578 0.30004254 -0.11867223 0.06774371 0.29665086 0.31252795
-0.02192246 0.15434673 0.22939771 -0.10879705 0.12215784 0.22802255 0.09596956 -0.14088552
